…
      "config": {
        "adapter_dim": 64,
        "architecture_variant": "adapter",
        "attention_mask_mode": "additive_causal",
        "batch_size": 2,
        "checkpoint_interval": 1000,
        "device": "rocm",
        "gradient_accumulation_steps": 1,
        "heads": 8,
        "hidden_dim": 528,
        "layers": 3,
        "learning_rate": 0.0001,
        "mixed_precision": "fp32",
        "optimizer_name": "sgd",
        "progress_interval": 500,
        "seq_len": 128,
        "steps": 10000,
        "validation_batches": 8
      },
      "module_tree": "DenseDecoder(\n  (token_embedding): Embedding(257, 528)\n  (position_embedding): Embedding(128, 528)\n  (blocks): ModuleList(\n    (0-2): 3 x TransformerEncoderLayer(\n      (self_attn): MultiheadAttention(\n        (out_proj): NonDynamicallyQuantizableLinear(in_features=528, out_features=528, bias=True)\n      )\n      (linear1): Linear(in_features=528, out_features=2112, bias=True)\n      (dropout): Dropout(p=0.0, inplace=False)\n      (linear2): Linear(in_features=2112, out_features=528, bias=True)\n      (norm1): LayerNorm((528,), eps=1e-05, elementwise_affine=True, bias=True)\n      (norm2): LayerNorm((528,), eps=1e-05, elementwise_affine=True, bias=True)\n      (dropout1): Dropout(p=0.0, inplace=False)\n      (dropout2): Dropout(p=0.0, inplace=False)\n    )\n  )\n  (adapters): ModuleList(\n    (0-2): 3 x _ResidualAdapter(\n      (norm): LayerNorm((528,), eps=1e-05, elementwise_affine=True, bias=True)\n      (down): Linear(in_features=528, out_features=64, bias=True)\n      (up): Linear(in_features=64, out_features=528, bias=True)\n      (activation): GELU(approximate='none')\n    )\n  )\n  (norm): LayerNorm((528,), eps=1e-05, elementwise_affine=True, bias=True)\n  (head): Linear(in_features=528, out_features=257, bias=True)\n)",
      "top_level_parameter_counts": {
        "adapters": 0,
        "blocks": 0,
        "head": 135953,
        "norm": 1056,
        "position_embedding": 67584,
        "token_embedding": 135696
      },
      "total_parameters": 10604801,
      "trainable_parameters": 10604801
    },
    "dense_11m": {
      "active_parameters_per_token": 11025505,
      "config": {
        "adapter_dim": 0,
        "architecture_variant": "dense",
        "attention_mask_mode": "additive_causal",
        "batch_size": 2,
        "checkpoint_interval": 1000,
        "device": "rocm",
        "gradient_accumulation_steps": 1,
        "heads": 8,
        "hidden_dim": 544,
        "layers": 3,
        "learning_rate": 0.0001,
        "mixed_precision": "fp32",
        "optimizer_name": "adamw",
        "progress_interval": 500,
        "seq_len": 128,
        "steps": 10000,
        "validation_batches": 8
      },
      "module_tree": "DenseDecoder(\n  (token_embedding): Embedding(257, 544)\n  (position_embedding): Embedding(128, 544)\n  (blocks): ModuleList(\n    (0-2): 3 x TransformerEncoderLayer(\n      (self_attn): MultiheadAttention(\n        (out_proj): NonDynamicallyQuantizableLinear(in_features=544, out_features=544, bias=True)\n      )\n      (linear1): Linear(in_features=544, out_features=2176, bias=True)\n      (dropout): Dropout(p=0.0, inplace=False)\n      (linear2): Linear(in_features=2176, out_features=544, bias=True)\n      (norm1): LayerNorm((544,), eps=1e-05, elementwise_affine=True, bias=True)\n      (norm2): LayerNorm((544,), eps=1e-05, elementwise_affine=True, bias=True)\n      (dropout1): Dropout(p=0.0, inplace=False)\n      (dropout2): Dropout(p=0.0, inplace=False)\n    )\n  )\n  (adapters): ModuleList(\n    (0-2): 3 x Identity()\n  )\n  (norm): LayerNorm((544,), eps=1e-05, elementwise_affine=True, bias=True)\n  (head): Linear(in_features=544, out_features=257, bias=True)\n)",
      "top_level_parameter_counts": {
        "adapters": 0,
        "blocks": 0,
        "head": 140065,
        "norm": 1088,
        "position_embedding": 69632,
        "token_embedding": 139808
      },
      "total_parameters": 11025505,
      "trainable_parameters": 11025505
    },
    "routing_or_residual_expert_candidate": "No routed/residual-expert trained model exists in the current dense-training path. Earlier routing work is proxy/synthetic and not a trained decoder candidate."
…
